traffic_classifier.tflite (tflite, 973428 bytes, 12 tensors)

sequential/conv2d/BiasAdd/ReadVariableOp f4 [32]
000000 2e 6e 2e 3e e0 50 9f bc ea e1 ad be c2 17 16 be
       0.17034218 -0.019447744 -0.3396142 -0.146575
000010 d6 c8 a3 bd ff 08 13 bf fe 1e 75 be 64 fe 80 3c
       -0.07997291 -0.574356 -0.23937604 0.015746303
000020 2f 6b c7 bd 89 ea 17 3d b6 07 93 be b7 6f 9f bd
       -0.097372405 0.037088905 -0.2871682 -0.0778498
000030 4d f3 51 3b fd 9a 44 3f 36 f4 38 bc 9d 36 9c bc
       0.0032035888 0.76798993 -0.011288693 -0.01906901
000040 d7 2a 32 be 9e 3c b2 3e 58 9d a2 bc 90 8c 84 bc
       -0.17399155 0.34811872 -0.019850418 -0.016180307
000050 7d ba 75 bc 5d f7 8e bc 88 cf 05 bd 6d a9 a3 be
       -0.014998076 -0.017451936 -0.03266862 -0.319652
000060 3d f1 58 be b0 95 fb 3d 23 3d c6 bc 62 a4 d7 bc
       -0.21185775 0.1228441 -0.024199074 -0.026323501
000070 90 1a 6c 3d 34 f3 8c bc b2 7e 4e bd fb 30 e9 3e
       0.05764252 -0.017205812 -0.050413795 0.45545182

sequential/conv2d_1/BiasAdd/ReadVariableOp f4 [32]
000000 b8 e4 34 bd 73 24 22 bf 4e dc c8 bd ec 87 80 be
       -0.044163436 -0.6333687 -0.09807645 -0.251037
000010 6f 92 2c 3e 67 ac ac be b8 60 cf 3a 59 0f 8a be
       0.16852735 -0.33725283 0.0015821671 -0.26964834
000020 7f b9 b0 be 9b af 0a 3d 86 31 58 3e 6e b8 f4 bd
       -0.34516522 0.033858877 0.21112642 -0.1194924
000030 70 81 89 3e e6 6c be bb 9e ca f1 bd 09 2c 2b be
       0.26856565 -0.0058113215 -0.11806224 -0.16716017
000040 08 b1 cf bd 0e 0f 1e bd 06 b6 79 bd 4f 85 b5 3e
       -0.10141188 -0.038588576 -0.060964607 0.3545327
000050 61 1b 67 be aa 60 cd bc 9d e7 2d 3e d4 a2 77 3d
       -0.22569038 -0.025070507 0.16982885 0.06045802
000060 57 2d 4e 3e 8e 07 7e be 0c a1 ac bd f5 88 17 be
       0.20134483 -0.2480757 -0.08429155 -0.14798339
000070 e4 78 13 3d 92 9f 6e 3e 9b 2b 76 3e 04 88 61 3e
       0.036003962 0.23303059 0.24040072 0.22024542

sequential/conv2d_2/BiasAdd/ReadVariableOp f4 [64]
000000 7b e2 36 3f 63 90 08 bf a6 60 1a bf 1f 11 39 bc
       0.7143933 -0.53345317 -0.60303724 -0.011295586
000010 69 ba 2a 3e 23 1b a4 bd 33 50 6d 3f cd 44 6b bf
       0.16672672 -0.080129884 0.927005 -0.91901857
000020 28 51 b0 be 13 63 83 3e b6 3f 94 3f 5e c5 9a 3e
       -0.34436917 0.25661525 1.1581943 0.30228704
000030 5b 45 9c 3e af 6c 6c 3f 0f 09 5d 3f fe 64 20 bf
       0.30521664 0.9235334 0.8634195 -0.626541
000040 fc f6 2f bf 29 fc 06 3d 4e 11 1f b8 53 50 d6 bf
       -0.68736243 0.032955322 -3.792467e-05 -1.6743263
000050 35 b3 8b 3f 19 da f6 be 3c b4 0f bf 48 d7 62 3f
       1.0914065 -0.4821327 -0.5613439 0.88609743
000060 6d 61 79 3e 6e 47 11 bf a4 3b 26 3e b0 f1 6c bd
       0.24353571 -0.5674962 0.16233689 -0.05784768
000070 ef ca 84 be 67 2d b7 3f a0 50 97 be 2b 39 fa 3e
       -0.25936076 1.4310731 -0.295537 0.4887174
000080 08 e4 46 3f b7 f8 92 be 41 b6 a9 bf 1c 87 87 3f
       0.776917 -0.2870538 -1.3258744 1.0588107
000090 fc 1d b8 3e 6a 19 8c 3e 3b 99 13 3f 5c c5 64 bf
       0.35960376 0.2736314 0.57655686 -0.89363647
0000a0 37 48 bd be fb 74 06 3d 1a 47 33 3d 6a 1a 82 be
       -0.36969158 0.032826405 0.04376898 -0.25410777
0000b0 cd 58 b4 be c1 f0 40 3f ba 92 3f bf 36 21 38 bf
       -0.35224 0.7536736 -0.7483326 -0.71925676
0000c0 df ca 6d bf cf 15 67 bd 89 c3 23 3b c8 b0 a3 3e
       -0.9288768 -0.056417283 0.0024988374 0.3197081
0000d0 d4 11 2d 3f 32 a4 a6 39 bd 05 96 bd 1d e0 3e 3f
       0.6760533 0.00031784322 -0.07325313 0.7456072
0000e0 bc 72 56 be 74 70 6f bf 73 82 8f be 28 a1 09 be
       -0.20942205 -0.93530965 -0.28029212 -0.13440382
0000f0 9b 63 b4 3e d9 b6 d8 3d 27 7d a6 3d 62 e6 eb 3d
       0.35232243 0.105817504 0.0812934 0.115185514

sequential/conv2d_3/BiasAdd/ReadVariableOp f4 [64]
000000 51 8c ed 3d 65 9b aa be f9 13 db bd fd e5 63 3e
       0.11599029 -0.33321682 -0.10697169 0.22255702
000010 cd a2 38 3f a0 f2 eb 3e cc 4e 1c bd 45 09 91 bd
       0.72123414 0.46083546 -0.038161084 -0.07081846
000020 42 68 47 3e 9a a9 b1 be c1 ae 1f 3e 85 28 2a bd
       0.19473365 -0.34699708 0.15594007 -0.04154255
000030 4c c4 86 3c b2 35 e3 bd 61 81 bc 3e 0d 8e d1 bd
       0.016451024 -0.11094226 0.36817458 -0.10232172
000040 07 1f ca 3e 0c c9 34 be c0 87 43 3e 0c 6b 10 3f
       0.39476797 -0.17654818 0.19094753 0.5641334
000050 74 42 0f 3f 3e 98 d8 3d 8a a1 1f bd 8e 84 e5 3e
       0.55960774 0.10575913 -0.038972415 0.44827694
000060 30 08 41 3e ee 0d a5 be c8 e3 1f 3f 1e c8 19 3d
       0.1885078 -0.3223719 0.6245694 0.037544362
000070 78 aa 24 bd 1d fc 7c 3e 9c e1 38 bf 94 83 4d 3d
       -0.040201634 0.24705549 -0.7221925 0.05017431
000080 05 49 60 3f 4a 27 06 3f 97 51 42 be 0c 2f 6b 3f
       0.8761142 0.524037 -0.18976437 0.9186866
000090 a7 dc 9b 3e cf 74 3f be 8b f3 2a 3f f7 18 af 3e
       0.30441782 -0.18696903 0.6677787 0.34198734
0000a0 9d 4d 19 3f 60 62 48 3e 78 ee c8 3e 05 a9 65 bd
       0.59884053 0.19568777 0.39244437 -0.056069393
0000b0 12 94 e0 3d f3 b7 8d 3c ae 34 e9 bb 2a 32 db 3e
       0.10965742 0.017299628 -0.0071168756 0.4281171
0000c0 34 26 07 3f 0c 2f 14 be ab 95 b9 3c 39 27 6a 3e
       0.5279267 -0.14471072 0.022654375 0.22866525
0000d0 57 7d 24 be d2 d3 86 3d d0 86 cd 3e 57 c5 1c 3e
       -0.16063438 0.0658337 0.40141916 0.15309654
0000e0 1e 47 e1 3d 23 dd 35 be 34 3d c6 3e fb 83 08 3e
       0.10999893 -0.17760138 0.3871857 0.13331597
0000f0 e2 f3 89 3d b2 fd 15 be ba f5 29 bf c0 57 7f 3e
       0.0673597 -0.14647558 -0.66390574 0.24935818

sequential/conv2d/Conv2D f4 [32, 5, 5, 3]
000000 6d d7 11 be 39 77 d2 bd 80 2b 39 3d c1 be 3a be
       -0.14242335 -0.10276646 0.0452075 -0.1823683
000010 89 96 28 bd dc a5 1a 3e be b5 b3 bd 36 13 71 3d
       -0.041159187 0.15102333 -0.08774899 0.05885621
000020 c3 a6 08 bd f2 9e f3 bd a7 b4 c7 3b 4d 5f 4f bd
       -0.03336216 -0.11895551 0.0060945335 -0.050627995
000030 7c 60 07 bd 9f cf 86 bd 99 91 86 bc 08 ac 74 be
       -0.033051 -0.06582569 -0.016426848 -0.2389375
000040 c5 49 01 be d1 33 da 3d ea f8 02 be fd 55 f9 3c
       -0.12625797 0.106544144 -0.12790266 0.03043651
000050 95 d5 e4 3d 39 13 81 bd ef 43 f2 3c 99 a8 4e 3e
       0.1117355 -0.063024946 0.029573409 0.20181502
000060 5e 1c ac 3d af 8c e8 3d f4 7a 05 3e 2b b8 3b 3d
       0.08403848 0.11354958 0.13035184 0.045829933
000070 50 5f 01 bc fe b8 ed 3b af 3a 6e be 37 c7 2f bc
       -0.007896259 0.007254719 -0.23264574 -0.010728649
000080 b4 49 78 bd 69 d9 97 be 28 f0 10 be f3 91 39 bd
       -0.060617164 -0.29658058 -0.14154112 -0.045305204
000090 f4 22 1a be ec 14 f9 bc 30 04 17 3c c7 0a de 3c
       -0.15052396 -0.030405484 0.009217307 0.027104748
0000a0 40 36 48 3d 30 1a 36 bb c2 da 7f bd 61 1a 16 3d
       0.04887986 -0.0027786605 -0.062464483 0.03664625
0000b0 0a 53 86 3b 36 c9 ef bd ce 8b 9d 3d 8c 27 23 3d
       0.0040992545 -0.117083 0.07692681 0.039832637
0000c0 af 1e fa bd d5 bd 7c bd a4 ef 8c bd 55 9d 08 be
       -0.12212884 -0.061704475 -0.06881645 -0.13341267
0000d0 de 59 88 bb ec dc 9e b9 8e 8d 6b 3c c7 df 49 3a
       -0.0041611036 -0.00030300708 0.014377011 0.0007700887
0000e0 2f df 90 3a d7 4f 5b bd f1 b2 ff bb a4 6b 56 bd
       0.0011052842 -0.053542938 -0.007803314 -0.052348748
0000f0 36 57 c3 3d 92 98 04 3e 49 2e bb 3d 59 12 15 3e
       0.095381185 0.12948826 0.091396876 0.1455778
000100 e0 2f 0b 3e 53 16 83 3d 61 0d 28 3e 2f 86 9a 3d
       0.13592482 0.064007424 0.16411354 0.07545125
000110 b2 41 eb 3c b1 69 d9 3d d9 5b 55 3d ce 5f e0 3d
       0.02871785 0.10615862 0.052089546 0.10955773
000120 cd 57 10 be 52 f0 46 3d ec 52 92 3a 2d 6f 5d 3d
       -0.14095993 0.04856903 0.0011163629 0.054061104
000130 79 2e 77 3b 7d 04 c8 3c 3e 77 5f 3d 0f 9a 8b 3c
       0.003771691 0.024416203 0.054557078 0.017041234
000140 db 9e 2b bd 4c 90 46 bd bd 04 77 bc af f6 37 bd
       -0.041899543 -0.048477456 -0.015076813 -0.04491299
000150 57 c1 86 bc 31 6e 00 bc 4d 45 d2 3c 65 91 a4 bc
       -0.016449613 -0.007838772 0.02566781 -0.02008886
000160 34 11 cd 3a 2d f9 21 bd e1 fd b0 bd 1a 66 7c bd
       0.0015645386 -0.039544273 -0.086421736 -0.06162081
000170 11 13 a1 3c 72 09 48 bd f3 97 57 3d 2f d0 06 bd
       0.019662412 -0.048837133 0.052635144 -0.032913383
000180 f1 5d 89 bd 95 66 75 bc 6f 74 c5 ba ec 40 ee 3b
       -0.06707371 -0.014978071 -0.0015064607 0.007270923
000190 64 6f 3a bd 5b d0 2b ba ee 74 49 bd 04 c2 37 3d
       -0.045516387 -0.00065541797 -0.04918378 0.044862762
0001a0 b5 e9 d0 39 2d 49 a3 bd 13 b4 0e bc 89 65 2e 3c
       0.00039846977 -0.079729415 -0.008709925 0.010644325
0001b0 06 ff 63 bd dd 04 df bb a5 d0 fe bc 1d 66 62 3d
       -0.05566313 -0.0068059997 -0.031105349 0.055273164
0001c0 90 08 2d 3c e0 c2 54 bd fe 48 65 3c dc 70 7b 3d
       0.0105611235 -0.05194366 0.0139944535 0.061386928
0001d0 d3 c6 9e 3c d8 bb 51 bd 02 3e d9 bb 4a 4a 26 3d
       0.019381916 -0.051204532 -0.0066297064 0.04059819
0001e0 ab f6 0c bd 25 00 5e bd 28 88 b2 3c aa a0 3f bb
       -0.03441493 -0.054199357 0.02179344 -0.002924005
0001f0 f3 fe 44 bd 5e da 69 3d ad d7 97 bd 78 0a b6 bd
       -0.0480947 0.057093017 -0.07414184 -0.088887155
000200 14 7e 82 bd 7e 53 2c bc 28 f7 62 bb e8 d3 2f 3d
       -0.06371704 -0.010517953 -0.003463218 0.0429267
000210 1f 63 6e bd c3 45 18 3c 93 86 21 3c 40 da 58 3d
       -0.058199998 0.009293976 0.009858745 0.052942514
000220 72 17 fe bc 17 ee 07 3d bd d5 69 bd c6 5e 19 bd
       -0.031017039 0.033186045 -0.057088602 -0.0374439
000230 aa 3e ba bd f6 62 0a 3a e8 0a 49 bd 9e e2 62 bd
       -0.090939835 0.00052790286 -0.049082667 -0.0553919
000240 82 4b 0a 3d 0a a1 60 bd e3 d1 0c bd 4b 59 aa 3c
       0.033763416 -0.05484108 -0.03437985 0.020794531
000250 13 6b 5b 3c e7 1a 27 bd 66 bf e0 3d 10 59 8c 3d
       0.013392228 -0.04079714 0.10974006 0.06852925
000260 48 6f d2 3d 81 7a 0c 3d 52 49 33 3e ca c5 a5 3c
       0.102751315 0.034296516 0.17508438 0.020235915
000270 78 c8 3e 3e 74 ad cd 3d 63 ec 9d bc 17 f9 cd 3c
       0.1863116 0.10042849 -0.019277757 0.02514319
000280 4f 36 08 3e 7b c9 3a bc bb 92 bd 3d 34 e7 22 3d
       0.13301967 -0.011400576 0.09256502 0.039771274
000290 bb 06 68 bd 15 ea 2c 3e c0 bf 45 3e be 96 18 3b
       -0.056647044 0.1688617 0.19311428 0.0023283209
0002a0 74 f5 97 3d 56 5a d7 3d 84 d6 fb 3a 12 74 8b bd
       0.07419863 0.10515277 0.0019213711 -0.06809248
0002b0 a8 07 a2 3d e6 0b 67 bd 27 2b f7 bd 5f 5d ed bd
       0.079116166 -0.05640783 -0.120687775 -0.11590075
0002c0 4d 18 80 bd ab 11 5f 3d ed 4c 76 bd a8 71 51 3d
       -0.06254635 0.05446021 -0.060131956 0.05113378
0002d0 fb c7 e3 3d 8e ee d6 3d 36 73 23 3c 6e 22 b0 3c
       0.111221276 0.104947194 0.009976199 0.021500792
0002e0 1d 53 0a 3e 9a 67 6f 3d 5e 72 03 be aa 86 f8 bd
       0.13508268 0.05844841 -0.12836596 -0.1213506
0002f0 07 20 5c bd 4d 58 6c be 91 2d 19 be a2 b1 d2 3c
       -0.05374148 -0.23080559 -0.14958788 0.025719468
000300 d1 bf 08 be dc 4c 18 3d a4 d7 64 3d 7f ba 5a 3d
       -0.13354422 0.037182674 0.055869713 0.053400513
000310 a0 ec ef 3d 83 81 f1 bc ea 8e c0 3c 97 0f 05 3d
       0.117150545 -0.029480701 0.023505647 0.03248557
000320 39 74 8d 3d ae e5 8c be 51 30 77 bc 37 8e fd bd
       0.06906933 -0.27518982 -0.015087203 -0.12380641
000330 6e 8d 5b be 97 c8 66 be e1 ff 1e bd b1 d8 4e be
       -0.2144067 -0.22537456 -0.038818244 -0.20199849
000340 2a 0a f1 bd 15 3d 20 bd ee 25 c6 bd 5f e5 69 3c
       -0.11769517 -0.039120752 -0.09675203 0.014275878
000350 4c 21 46 bd 26 6a cd bd f7 1f 0b 3e 00 01 c8 3d
       -0.048371598 -0.10030012 0.13586412 0.09765816
000360 11 16 4f be 22 7a b4 bc 77 5c b9 bd ed 82 91 be
       -0.20223261 -0.022030894 -0.090508394 -0.284202
000370 99 06 33 be b8 f7 8c bd 80 86 49 be 56 24 04 be
       -0.17482986 -0.06883186 -0.19680214 -0.12904486
000380 9e 14 d3 bd 86 d3 22 3d 0a ba 34 3d 85 dc 82 3c
       -0.10306667 0.039752506 0.044122733 0.015974293
000390 0e 27 7e bd a6 11 4b bc 21 c0 14 3d e6 73 bc bd
       -0.062048964 -0.012394344 0.03631604 -0.092017934
0003a0 b0 fc 02 bd 86 de 25 bc 9b 64 f1 3b 0c a6 0f be
       -0.031979263 -0.0101238545 0.0073667294 -0.14028186
0003b0 21 c3 86 bc a3 36 96 3d bb de b6 3c cf 05 95 3d
       -0.016450467 0.0733464 0.022323003 0.072764985
0003c0 60 26 87 3b f9 a0 92 3d c4 ee 86 bd 30 f0 7d bd
       0.0041244477 0.07159609 -0.0658851 -0.06199664
0003d0 17 17 ae bb 3a f0 a3 3b c1 d8 e4 bd 1d 3a 09 3c
       -0.005312811 0.0050030025 -0.11174155 0.008375672
0003e0 a2 79 8d bd f7 06 95 be a0 d5 f9 bd b9 2e f0 bd
       -0.06907965 -0.29106876 -0.12198949 -0.11727662
0003f0 6f ee 06 be 14 e0 49 be c6 c7 4f 3d 19 93 57 3d
       -0.13176893 -0.19714385 0.05072763 0.052630518

sequential/conv2d_1/Conv2D f4 [32, 5, 5, 32]
000000 b9 94 d1 bd 74 f4 68 3b 47 33 22 be 1e d1 12 be
       -0.10233445 0.0035546096 -0.15839873 -0.14337584
000010 25 d5 06 bd 84 7a 09 3d 0d 5f 1b 3d bd 43 1a bd
       -0.032918114 0.033564106 0.037932444 -0.037662257
000020 27 a0 50 bd 0c 46 bd bd 8f 05 87 bb 6c 3f 00 bc
       -0.050933983 -0.09241876 -0.0041205357 -0.007827621
000030 c5 35 58 bd 13 a7 0d be 62 93 e9 3a 4b 7f 3b 3d
       -0.052785654 -0.13833265 0.0017820413 0.045775693
000040 c9 68 c9 3d 6e 9d 0c bd d4 7f 4a bc d4 a1 51 bd
       0.09834439 -0.034329824 -0.012359578 -0.051179722
000050 62 84 1e 3d 1e cf a4 3c 5a c8 14 bd 3b 87 ea bc
       0.03870047 0.020118292 -0.036323883 -0.028628936
000060 6c f6 44 3d 53 a1 58 bd 04 89 10 bd 0b 5b 14 3c
       0.04808657 -0.052888226 -0.03528692 0.009054909
000070 d9 c1 55 bd 80 ff f9 b9 ca 14 63 bd 97 37 0a 3d
       -0.05218682 -0.00047683343 -0.055439748 0.03374442
000080 fd c2 22 be d3 ce 0d 3d 53 71 73 bd 11 75 ec bd
       -0.15894695 0.03462107 -0.059434246 -0.11545766
000090 d5 b5 40 3d 1e e6 26 3d 69 a1 87 bc b1 2b 80 bd
       0.04704841 0.0407468 -0.016556459 -0.062583335
0000a0 6d d1 91 3d e6 7f 75 bd 22 6e 57 bd 69 d1 22 bd
       0.07120023 -0.059936427 -0.052595265 -0.03975049
0000b0 6f 1c bb bc 3f 50 1e be 5d b9 d6 3a e5 e5 b4 bc
       -0.022840707 -0.15460299 0.0016382147 -0.022082279
0000c0 56 dd 4c 3d 24 e1 fc bc 21 07 88 3c 86 e7 c7 3b
       0.05001577 -0.030869074 0.016604962 0.006100598
0000d0 6c 04 ab 3c 20 26 17 3d 54 df bf 3c da 8f 66 3b
       0.020876132 0.036901593 0.02342192 0.0035180957
0000e0 20 8e 1d bd 31 41 b0 3d 49 86 2b bd c4 39 8c bd
       -0.03846562 0.08606184 -0.04187611 -0.068469554
0000f0 6e be 0c 3d 55 11 2b 3b b7 a7 0e 3d 77 da 3e bc
       0.034361295 0.002610286 0.034827914 -0.011648766
000100 19 b3 84 bd 99 d3 51 bc 09 53 31 bd 5e d8 4d ba
       -0.06479473 -0.0128067965 -0.04329208 -0.00078523706
000110 1a 6f 70 bc cc ad 9d bd da a8 3b 3c 5f ec 90 bc
       -0.014674926 -0.07699165 0.011453832 -0.017690836
000120 1e 24 72 3c 91 e5 08 bd ac 64 59 bc af b1 31 bc
       0.014779119 -0.033422057 -0.013268631 -0.010845586
000130 de 37 e9 bc b5 ab 50 bd 1a d8 f1 bc c4 fe 2e 3d
       -0.028469022 -0.050945003 -0.02952199 0.042723432
000140 68 72 6d 3b e0 90 90 bc d7 48 34 bd 04 3c 89 3c
       0.0036231522 -0.017647207 -0.044014778 0.01675225
000150 29 5e 49 3d 02 e7 47 3d b1 f6 e4 bb e5 56 83 bc
       0.049162064 0.04880429 -0.0069874157 -0.016032645
000160 58 fe c3 bb eb e3 f3 3d 50 c3 b8 3c b6 8a 78 bd
       -0.005981248 0.11908706 0.02255407 -0.06067916
000170 49 78 91 3c c0 60 27 39 92 1f 81 3c 92 01 9a bd
       0.017757552 0.00015962403 0.015762124 -0.07519831
000180 9b 47 0c 3d 7a 2d af bb 6e 75 40 bc 68 bc 25 be
       0.034247976 -0.0053459974 -0.011746747 -0.16185153
000190 80 6a 09 bd 0d 40 c0 bd c6 4c db bb 85 d1 a6 bc
       -0.033548832 -0.09387217 -0.0066925017 -0.020363579
0001a0 92 a0 32 3a 32 1c 5a bd 7c 0d 95 bd b2 45 ca 3c
       0.0006814088 -0.053249545 -0.072779626 0.024691436
0001b0 30 81 d8 3c 7e 3a 38 be 0b 1d b1 3c 8e 07 d3 bc
       0.026428789 -0.17991063 0.021620294 -0.025760438
0001c0 cf c4 86 bd db 61 7b 3c e2 33 2d 3d 55 da 45 3d
       -0.06580507 0.015343155 0.042285807 0.04830392
0001d0 c1 d1 4f bc 5a 66 4d 3c 5f 3a b2 3b 79 cd c7 bc
       -0.012684287 0.01253661 0.0054390873 -0.02438997
0001e0 f5 a0 0d 3d ab ca 6d bd 5d 26 b5 3c 0a d4 87 3c
       0.03457733 -0.058054607 0.02211302 0.0165806
0001f0 70 6a 44 3d bd 4c 85 bc 0b 30 87 bc 3e 22 8f bc
       0.04795307 -0.016271943 -0.0165024 -0.017472383
000200 92 e6 54 3c 52 c0 e2 bb bc 9e f9 bc f1 4b 2d be
       0.012994425 -0.006919899 -0.030471198 -0.169235
000210 f2 90 ea 3c 16 d1 a1 bd 61 a4 5c bb c4 f6 8f 3c
       0.028633568 -0.07901208 -0.0033667313 0.017573722
000220 1f 68 40 3c 2b b3 0c bd 1a b1 04 3c 28 ba 70 bd
       0.011743574 -0.034350555 0.008098865 -0.058771282
000230 ff 96 23 3c 7e c4 f9 bd db 4c 2d bd 0d 5e 52 3c
       0.009984731 -0.12195681 -0.042309623 0.012839806
000240 f1 f6 c1 bc 00 ef f1 bc f9 a7 8a 3c 33 1d 4e 3d
       -0.023677321 -0.02953291 0.016925799 0.050320815
000250 2b 58 5e bc 8d d2 d4 bc ba 13 9f 3c 03 d1 af bd
       -0.013570826 -0.025979305 0.019418586 -0.08584788
000260 cf ed 94 3c ee 6b c3 bd 8b 75 39 3d 86 75 08 3c
       0.018179802 -0.0954207 0.045278113 0.008328801
000270 2e 66 f0 3c cb b8 c9 bc c9 e1 8e bd 8f 84 f5 bc
       0.029345598 -0.024624249 -0.06976659 -0.029970435
000280 05 f9 2e 3c b2 13 31 bd 44 e6 53 be b4 5a 4a 3d
       0.010679488 -0.043231674 -0.20693308 0.049402907
000290 e1 f6 d4 bc 45 0d 1a 3d 3b b8 33 3d 5d 0f 22 bb
       -0.025996627 0.03761031 0.043876868 -0.0024728396
0002a0 27 c8 01 bd 14 7f 4d bc a4 fb 42 3d 75 d5 1b 3d
       -0.03168502 -0.012542505 0.047603264 0.038045365
0002b0 43 6a 0f 3d ef e8 5b bb 7b a8 37 3d 7b e8 8d bd
       0.03501345 -0.0033555587 0.04483841 -0.06929108
0002c0 75 2f 6c 3d 11 73 d2 bc 15 79 8f 3c bf 51 10 3d
       0.057662446 -0.025689634 0.017513791 0.03523421
0002d0 f9 b9 07 bd 68 a2 12 3d e7 23 6b bd 5e c8 2f bd
       -0.03313634 0.035799414 -0.057407286 -0.042915694
0002e0 23 1e 3c 3d 97 5c b3 bd 2c 87 45 3c 69 57 2c 3d
       0.045927178 -0.087578945 0.012056153 0.04207555
0002f0 3a 06 38 bd c4 4a 74 bd fa 4c 36 3d f0 19 45 3b
       -0.044927813 -0.059641615 0.044507004 0.0030075274
000300 c9 00 37 3d 4d 74 a2 3c 8a 59 cf bd 37 f2 25 bd
       0.044678483 0.019830847 -0.101245 -0.040514197
000310 57 f7 d5 bb a4 d4 4f 3c ff 7c be bc f3 6a 54 3c
       -0.0065297293 0.012684975 -0.023252962 0.012964952
000320 43 e5 e7 bb 40 cb 97 bd d6 94 14 3d 53 b8 c5 bc
       -0.0070768907 -0.07411814 0.036274754 -0.024135744
000330 87 fe 55 3d 9d d7 f8 bd 29 c2 8a bd b8 e4 ff 3c
       0.05224469 -0.121505 -0.06775314 0.031236991
000340 fb c5 d6 bc df 3a a1 bc e5 2d be bc 58 40 73 3c
       -0.026217451 -0.019681392 -0.023215244 0.014846884
000350 a0 4b a1 3b 0b 81 a0 3d ba e9 85 bc 1f 3c 4d bd
       0.0049223453 0.07837113 -0.016346801 -0.050106164
000360 fc dc 00 bd 1b 57 e6 bc cc ad 01 bd 2b f5 b3 3c
       -0.031460747 -0.028117707 -0.031659886 0.021967491
000370 b3 d7 0f bc 48 f5 6d bc 19 01 b6 3b f4 76 82 bd
       -0.008779454 -0.014523812 0.00555433 -0.06370345
000380 6b b7 17 bd d5 ea 19 3d c6 22 93 bc dc 00 ab 3c
       -0.037040155 0.03757747 -0.017960917 0.020874433
000390 97 23 62 bc 9d 24 d1 bc 05 d6 9c 3c 31 3f d7 bb
       -0.013802431 -0.025530154 0.019145021 -0.0065688123
0003a0 40 be 09 3d 63 9c 2f 3d 36 75 cb bb 21 2e 2a bd
       0.033628702 0.04287375 -0.006209041 -0.0415479
0003b0 6e dc 1c 3d cb 01 51 be ab 35 48 bb 51 32 54 bd
       0.038296156 -0.2041084 -0.0030549567 -0.051805798
0003c0 29 55 25 3c e2 83 5f bd 0f 1d 2b 39 4f d2 81 bd
       0.010091105 -0.054569133 0.00016318656 -0.06338941
0003d0 e2 93 ea 3c 81 94 4b bd 8b f0 8b 3c 42 c2 06 bd
       0.02863497 -0.04970217 0.017082473 -0.032900102
0003e0 d6 ff 3a 3d 9e 3a 81 bd b1 30 7d 3c 31 d2 8e bc
       0.04565414 -0.063100085 0.0154535035 -0.017434211
0003f0 65 92 71 bd 24 24 39 3c c7 61 d9 3c c7 ed ab bb
       -0.058977503 0.0113001205 0.026535882 -0.005246851

sequential/conv2d_2/Conv2D f4 [64, 3, 3, 32]
000000 76 7f 53 3e 38 d1 16 be f8 97 6d be 31 0f 37 bd
       0.20654091 -0.14728248 -0.23202503 -0.044692222
000010 e5 21 3b 3e 44 9d 4a be 0f 1d 57 3d cc e0 36 3e
       0.18274648 -0.19786555 0.052517947 0.1785919
000020 42 46 90 bc ec 61 ef 3c 00 f6 a9 3d c4 94 cf bd
       -0.017611627 0.029221497 0.08298874 -0.10135797
000030 2e 5c 01 3e c7 be a3 3d 3c 37 29 3d 4d 0d 84 bd
       0.1263282 0.07995372 0.04131244 -0.064478494
000040 18 fa ca 3d 7c 7a 9a bd e3 35 78 3c c6 1d 1e be
       0.09910983 -0.07542893 0.015149566 -0.15441045
000050 47 db d7 bd 40 e1 de bd af d2 42 3b 14 96 08 3e
       -0.10539871 -0.10882807 0.0029727628 0.133385
000060 f5 55 2e be 06 89 3a be 8e 8a 65 bc d4 e7 16 3e
       -0.17024978 -0.18216333 -0.014010085 0.14736873
000070 2e 65 95 bc 44 db 7b 3b f1 4c 81 bd 99 7f 02 be
       -0.018236723 0.0038430253 -0.063135035 -0.12743987
000080 b0 c8 a7 3d fd 7d e2 bd 4e 2d 3b be 00 02 a7 bd
       0.08192575 -0.110591866 -0.18279001 -0.08154678
000090 5c 6a bb bd 63 5c 8e bd 1f 48 56 be 49 48 73 3d
       -0.09151146 -0.06951215 -0.2092595 0.05939511
0000a0 cc 0a 86 be 3a b1 00 be 8f 62 49 bd f7 05 b4 3d
       -0.26180112 -0.12567607 -0.04916626 0.087902
0000b0 27 c7 6e 3d 64 ba 4f be 32 77 50 3e 29 8b de bd
       0.058295395 -0.20285946 0.2035797 -0.108663864
0000c0 0e ac 14 be 1c 06 43 3c ad fa d3 bd 35 6f 77 3d
       -0.14518759 0.011903312 -0.10350547 0.06040879
0000d0 4b 93 63 be bf 8d 4d bd 39 93 79 be c4 6e e2 bd
       -0.22224157 -0.050184008 -0.24372567 -0.11056283
0000e0 02 27 19 bc 3c db 6b 3d 9d ee 96 bc 1d ba 6f be
       -0.009347679 0.057582125 -0.018424327 -0.2341084
0000f0 cb 02 eb 3d 75 1d da bd 72 7f bc bd dd ec a2 3d
       0.11475142 -0.1065015 -0.09203996 0.07955334
000100 52 ae 14 3e f2 89 34 be aa a8 ba bc 77 d0 d7 3d
       0.14519623 -0.17630747 -0.022785503 0.105378084
000110 fc 13 26 be 9b e1 d4 bd 2c 43 7f be 37 f5 89 bd
       -0.16218561 -0.10394593 -0.24927968 -0.06736224
000120 3f 31 63 be 1e f0 1b be 0c 94 f8 bd c8 92 37 bd
       -0.22186755 -0.15228316 -0.12137613 -0.044817716
000130 d5 5f 4d 3c 1f 25 6b be 98 c1 85 3d 35 85 a6 bd
       0.012535055 -0.2296338 0.06531066 -0.08130876
000140 5d 6d 76 bb 78 89 60 3c e1 5e 9b bc 51 76 a5 3d
       -0.0037601807 0.01370465 -0.01896614 0.08079208
000150 76 c1 ed bd 06 de cc bd 91 a9 64 bd 37 f6 3c 3d
       -0.11609165 -0.10003285 -0.055825774 0.046133246
000160 a3 80 ec 3b 77 47 9e bd 3b 26 6d 3b ba 49 2c be
       0.007217483 -0.077284746 0.0036186117 -0.16825
000170 94 bf 11 bd de 84 ad bd 15 6a d5 bd fa 56 44 3d
       -0.035583094 -0.08472608 -0.10420624 0.04793451
000180 01 b6 de bd 1b e4 46 be 8f 87 d0 bc 65 47 41 3d
       -0.10874558 -0.19422953 -0.025455264 0.047187228
000190 3a 7b 27 be 96 ed 98 be 71 a3 99 bb 3b ab 91 3d
       -0.16355601 -0.29868764 -0.004688673 0.07112738
0001a0 f7 9d 51 be af e2 16 bd 64 ae ae 3c 9c 13 0b bd
       -0.20470415 -0.036837276 0.02132339 -0.033954248
0001b0 8e 4f a2 3d 2c 1f a7 bc ad fa 81 3d 32 41 6d bc
       0.0792533 -0.020400606 0.06346641 -0.014480876
0001c0 af a8 90 3b 84 9b 5b be e8 e7 10 be d0 27 d8 bb
       0.00441464 -0.21446043 -0.14150965 -0.006596543
0001d0 6d 61 e7 bd 47 dc cf 3d 5f 6b 0e be 0e f0 a5 3d
       -0.11297879 0.101494364 -0.13908146 0.081024274
0001e0 ba 4e 16 bd e9 9c e8 3c 59 88 14 3e cc d7 4a be
       -0.036696173 0.028395133 0.14505138 -0.19808882
0001f0 f5 89 00 be 6d b9 81 3c af c3 b6 3d 51 b0 41 3e
       -0.12552626 0.015835488 0.089240424 0.18914916
000200 10 c2 11 3b 97 58 20 be 34 5b 9c 3d 41 b9 5c bb
       0.0022240914 -0.15658794 0.07634583 -0.0033679756
000210 29 7f ab 3d 24 a5 bd bd e1 3c 96 be 40 4c 99 3d
       0.08373863 -0.09260014 -0.29343322 0.07485247
000220 fc e7 e5 bd 95 59 a9 be 35 69 d0 bd 5d 4b 14 bc
       -0.11225888 -0.33076158 -0.10176317 -0.009051171
000230 f1 bd 4e 3d c2 6c e0 bd 2a 64 b5 bd d1 51 c5 bd
       0.05047411 -0.10958244 -0.088569954 -0.09634746
000240 cd 77 09 be 12 23 f7 bd 39 c4 d7 bd 87 b4 32 bd
       -0.13424607 -0.12067236 -0.105354734 -0.043629196
000250 32 0e 69 be 53 a8 11 bd 05 4d 81 be 4c a1 77 3d
       -0.22759321 -0.035560917 -0.25254074 0.06045656
000260 7c 19 3e bd 43 5d 3c 3b 3d 1b ad 3c 4a fd d8 bd
       -0.046411023 0.0028742112 0.021131152 -0.10595186
000270 f2 09 18 be 1d 7e 08 be 35 10 c9 3d 2e bc b2 bd
       -0.14847544 -0.13329358 0.09817544 -0.08727299
000280 42 89 28 bc 36 b4 84 3d 2e e2 85 3d 9f 26 a3 bd
       -0.010286631 0.06479685 0.06537281 -0.07966351
000290 6a b3 15 be 82 f3 0e 3d 21 2b aa 3b 4e 5b f6 bd
       -0.14619222 0.034900196 0.0051931296 -0.12029134
0002a0 ca 60 33 be 3b 6b 39 3d 71 87 e2 3d 79 cc cc 3c
       -0.17517391 0.04526828 0.1106099 0.024999844
0002b0 b7 e0 f4 3d ed dc 12 be 8e fd 37 be c8 3a 24 bd
       0.119569235 -0.14342089 -0.17967817 -0.04009512
0002c0 07 e4 0b bd f3 f5 d7 bd 9d 3a cd bd 48 35 82 bd
       -0.03415301 -0.10544958 -0.10020945 -0.06357819
0002d0 b8 12 8c 3d 1a a8 bc bd 32 09 51 bb 7c cc 76 3d
       0.06839508 -0.0921175 -0.003189635 0.060253605
0002e0 66 78 4b bd 88 58 38 be 02 5d 1e 3d fa 61 00 3e
       -0.049675368 -0.18002522 0.038662918 0.12537375
0002f0 81 4d 90 bd 91 ef 58 3e 59 73 b6 bd 14 45 29 3d
       -0.07046033 0.21185137 -0.089087196 0.041325644
000300 0e e8 1a be a1 a4 5c be 67 14 19 3d 3d a7 5e 3e
       -0.15127584 -0.21547176 0.037372973 0.21743484
000310 3d 7f 55 be 40 3a 8f bd 45 78 01 3d 71 7e 8d bd
       -0.20849319 -0.06993532 0.03160884 -0.069088824
000320 5d cf 73 be e1 f8 bc 3a 52 e4 ed bc e8 cb 7e bd
       -0.23809572 0.0014417433 -0.029039536 -0.06220618
000330 ca dd 17 3d fd 70 50 bd e9 c0 6a 3d c9 d1 85 bd
       0.03707675 -0.050889004 0.05731288 -0.06534154
000340 17 2c ba bb d5 11 b0 bd 81 42 5a be dc fc df 3d
       -0.0056815255 -0.08597151 -0.21314432 0.10936901
000350 71 c1 5f bd 4d b8 ec bd 36 79 31 bd 2d 5c c2 3c
       -0.05462784 -0.1155859 -0.043328486 0.023725593
000360 8f ae ac be 2e eb a7 3c 11 23 ba bc a6 23 07 bd
       -0.33726928 0.020497885 -0.0227218 -0.03299298
000370 7a 72 9d bd f0 53 b1 3d 9b b4 8e bc 2b 8d b3 3d
       -0.0768785 0.08658588 -0.017420104 0.0876716
000380 84 a6 3d 3c 85 14 5d bd 66 bf bc 3d 47 65 fa 3b
       0.011575345 -0.053974647 0.09216194 0.0076414677
000390 95 7c 96 bc 19 87 66 be 38 99 ae bd 34 48 1e bd
       -0.018369952 -0.22512473 -0.08525318 -0.038643077
0003a0 8d a3 40 be d9 0a cd be 53 02 ca 3d 4d 74 c8 bd
       -0.1881239 -0.4004734 0.098637246 -0.097878076
0003b0 1d 40 96 bc 15 31 46 3d 96 99 05 bc 99 db d5 bd
       -0.018341118 0.048386652 -0.0081542935 -0.104422756
0003c0 6a f4 9b 3d 33 ec f2 bc bc f1 24 3c 76 40 24 3c
       0.07614978 -0.029653644 0.0100674 0.010025134
0003d0 1a 9b d0 bc 40 2e b2 bd 1e 6a e0 bd 74 ab 8c 3d
       -0.025464583 -0.08700228 -0.1095774 0.068686396
0003e0 72 77 82 be c5 f5 27 be f3 46 6d bd e8 57 c9 bd
       -0.25481755 -0.16402347 -0.05792899 -0.0983122
0003f0 ad 6c 9e 3d 74 0b 1c 3b 7a 5b 09 3e 78 aa 23 bd
       0.07735572 0.0023810538 0.13413802 -0.039957494

sequential/conv2d_3/Conv2D f4 [64, 3, 3, 64]
000000 ec 15 bf bd f6 6a e8 3d 4c 94 9d bd 6c 2c 67 be
       -0.09330353 0.11348526 -0.07694301 -0.2257554
000010 a8 87 ab 3d 0a b3 ff bd c7 09 03 3d 8f e2 bd 3c
       0.08375484 -0.12485321 0.031991746 0.02317932
000020 2d 02 db 3c 52 20 13 3e fa 50 a4 bd ba cc 32 3d
       0.026734436 0.14367798 -0.080232576 0.043652274
000030 da 64 e3 bb ab fd d2 3d 61 c8 95 bd cb 2d 2e bd
       -0.0069395127 0.103022896 -0.0731361 -0.04252414
000040 28 dc fe bc f6 91 84 be 08 9e 77 3d 0e cd 9f bd
       -0.031110838 -0.2589261 0.060453445 -0.07802783
000050 dc 78 67 be 79 c7 2d be e4 92 3e bd e5 14 c6 3d
       -0.22604698 -0.16970624 -0.046526805 0.09671954
000060 a1 f5 c1 bd 5c c2 6d be 55 00 02 be fb 6d e8 3d
       -0.09470678 -0.23218673 -0.12695439 0.11349102
000070 49 c0 6d 3e 9d 1f 93 bd c2 e0 f4 bd b0 bb 23 be
       0.23217882 -0.07183764 -0.11956932 -0.15989566
000080 de 92 ae bd 75 a1 c7 bd df 97 20 be 2b dd cb bc
       -0.085241064 -0.09747592 -0.15682934 -0.024885735
000090 bd 53 40 bb 22 f7 fa bd 98 3e 80 be 27 73 a0 bc
       -0.0029346787 -0.12254168 -0.25047755 -0.019586159
0000a0 b8 4a 1d bd 17 14 ef be 7a 09 04 be da 56 bc bb
       -0.038401335 -0.46695015 -0.1289424 -0.005747658
0000b0 b5 f1 bd bd ef 67 80 3d 5b 9a 0c be b1 e3 a9 3d
       -0.092746176 0.06269824 -0.13730757 0.08295382
0000c0 d3 41 43 3d b6 db 0b 3b 07 a6 90 3e 1e dd cf 3d
       0.047670197 0.0021340675 0.2825167 0.10149597
0000d0 32 0d c2 3d c6 08 73 bd 96 cf 38 bd 21 7b 14 be
       0.09475173 -0.05933454 -0.045119844 -0.14500095
0000e0 14 ef fc 3d 2a 03 05 3d c1 26 0d 3d 03 f7 99 be
       0.12350288 0.03247372 0.034460787 -0.30071267
0000f0 bf 2e 63 be d0 20 83 bc a0 97 68 be 9f 4a 85 be
       -0.22185801 -0.016006857 -0.2271409 -0.26033494
000100 50 b3 02 be 58 2e 32 be d6 59 63 be 23 98 05 be
       -0.12763715 -0.17400491 -0.22202238 -0.13046317
000110 29 ac 31 be 23 23 0a 3e f0 10 cf bd 8c 9f 81 be
       -0.1735083 0.13489966 -0.101106524 -0.25317037
000120 c4 28 7b bc 15 c2 ad bc c1 7c 68 3d d4 42 48 3c
       -0.0153295435 -0.02121071 0.0567596 0.012222964
000130 7d 14 c3 bd 61 1b 99 3e 2c 6c 18 3e d1 64 96 bc
       -0.09525392 0.299037 0.14885014 -0.01835862
000140 a2 1e 83 bc 2b 70 ae bd c8 92 70 3d e5 fb 17 bd
       -0.016005818 -0.08517488 0.05873373 -0.03710546
000150 84 d9 67 3c 09 e6 df bd 03 be f0 3d 96 41 e1 3d
       0.014150981 -0.109325476 0.11754992 0.10998838
000160 f9 18 1d 3e 17 1e 7e 3d 73 4c 47 3e 77 e6 f5 3d
       0.15341558 0.062040415 0.19462757 0.12006848
000170 91 d3 08 be a9 90 da 3c 05 e7 33 3e 4a a8 cd bd
       -0.13361956 0.026680307 0.17568596 -0.10041864
000180 65 56 6f 3d d7 91 b6 3d 10 64 3b be 2c 99 d5 bd
       0.058432 0.089145355 -0.1829989 -0.10429606
000190 ef 06 3b bd ff f0 00 be d6 28 4c bd 93 4f 71 be
       -0.04566091 -0.12591933 -0.04984363 -0.23565511
0001a0 ac 97 50 3d e0 93 b6 bd ae d2 24 be 2c d6 ed bd
       0.050925896 -0.08914924 -0.16095993 -0.11613116
0001b0 4b 03 83 be 70 44 2a 3e 2d 55 d4 bc 0e 55 23 bd
       -0.2558845 0.1662767 -0.025919521 -0.039876036
0001c0 44 77 c6 3c 9e e8 7f 3d dc 4e b3 3d 06 a2 b3 3c
       0.024226792 0.0624777 0.087552756 0.021927845
0001d0 f1 2b 69 bd 0d 72 95 3d 43 81 25 be 43 2c c8 bb
       -0.05692667 0.07297144 -0.1616259 -0.006108792
0001e0 76 4f a5 be d0 cf 03 be da b8 c9 bd 31 13 2b be
       -0.32287186 -0.12872243 -0.09849711 -0.1670654
0001f0 a4 4c 21 3d 37 9d 85 3e e8 b5 c6 bd 86 5d 1b be
       0.03937973 0.26096508 -0.097026646 -0.15172395
000200 ef b9 41 be a1 50 24 bd 1f 91 05 bd 51 67 96 3d
       -0.18918584 -0.040115956 -0.0326091 0.07343925
000210 a7 3b 2c be 20 16 af 3d aa 55 ea bd 85 e8 0d be
       -0.1681963 0.08549142 -0.114421204 -0.1385823
000220 69 3a 24 be 92 46 cc 3c 20 d0 d1 3d 24 4e c6 3d
       -0.16037907 0.024935994 0.10244775 0.09682873
000230 b6 36 96 bd 64 ff 1a be 68 63 f2 3d d2 68 2f be
       -0.07334654 -0.15136486 0.118353665 -0.1712983
000240 2c 1b ca bd 76 c7 19 be ab 27 32 3e 24 c7 09 bd
       -0.09868464 -0.15017495 0.17397945 -0.03363718
000250 4f 76 12 3e 15 5a a4 bd 5c d4 c4 3d 24 2b 43 be
       0.14302944 -0.08024994 0.09610817 -0.19059426
000260 15 ca c9 3c 62 fa 9f bc b0 bb 28 3e 9b f6 d6 3d
       0.024632493 -0.019528572 0.16477847 0.10496255
000270 69 e9 ab be f6 ef 83 3d c6 35 90 bd f4 be 8f be
       -0.33576515 0.06442253 -0.070415065 -0.28075373
000280 b6 04 7b 3d 70 5f 93 bd 58 04 91 3c a0 61 2c 3d
       0.06128379 -0.07195938 0.017702267 0.04208529
000290 32 28 1a 3e a1 1a 37 3c f9 15 14 bc a7 4c 00 be
       0.15054396 0.011175782 -0.009038442 -0.1252924
0002a0 af 0b 55 3d e1 d1 05 bd e4 8b eb bc 83 cb 34 3e
       0.052013095 -0.03267086 -0.028753228 0.17655759
0002b0 f7 df d9 3d e0 71 b2 bd d7 b8 0e be 99 25 8b 3d
       0.10638421 -0.08713126 -0.13937698 0.067942806
0002c0 83 4d 9f bd 39 97 ab bd 42 73 d4 bb 9d f1 01 3e
       -0.07778456 -0.08378453 -0.0064834664 0.12689824
0002d0 3b 78 1e be c9 3a d0 bd 64 11 77 3b ea 1b 08 be
       -0.15475552 -0.101674624 0.0037699575 -0.13291898
0002e0 94 90 a5 be 57 f8 8a 3d 4e ca d4 3d 60 15 18 3b
       -0.32336867 0.06785648 0.10390149 0.00232061
0002f0 96 6c 76 3c 82 ef d1 3d 9d 0f 6d be c9 0e 7e bd
       0.015040537 0.102507606 -0.23150487 -0.06202582
000300 de 3c 83 3e 27 36 0c be e6 57 a5 bb 50 3a ed bd
       0.25632375 -0.13692532 -0.0050458787 -0.11583388
000310 9e 3d 1d bc 4f e0 0b 3d 8a 30 06 3d be bd 5c bd
       -0.00959721 0.034149464 0.032761134 -0.05389189
000320 c5 e6 08 be 82 21 1d be b0 6a b2 3d 12 1a 7f bd
       -0.13369282 -0.15344813 0.08711755 -0.062280722
000330 6a 51 d7 3d ba c8 34 be da 33 4d be 44 78 d4 bc
       0.105135754 -0.17654696 -0.20039311 -0.025936253
000340 c8 64 19 3d 56 c1 d9 3d 4a 62 3c be 85 bb a2 be
       0.037449628 0.10632579 -0.1839687 -0.3178369
000350 2d ef b8 bd 87 99 c6 bd 29 12 f1 3d a1 81 24 bd
       -0.09029994 -0.09697252 0.11771042 -0.040162686
000360 09 6a 3c be 20 8c 84 3d 74 90 7e be 51 82 ba 3d
       -0.18399824 0.06472039 -0.24859792 0.09106887
000370 91 3d 50 bd b1 7f 19 3c f8 d7 64 be c4 42 76 bd
       -0.050839964 0.009368823 -0.2234801 -0.060122266
000380 d0 cf 30 3c 99 bb 47 bd 75 2e b0 bd 7b 96 f9 bd
       0.010791734 -0.04876289 -0.08602611 -0.12186905
000390 4d 25 14 3d 95 39 94 be ef ac 1c 3e 43 e9 25 3c
       0.036168385 -0.28950182 0.15300344 0.010126415
0003a0 37 27 cb bd 4c c1 82 bc dd 95 89 bd 85 5b 20 be
       -0.09919589 -0.015961312 -0.06718037 -0.15659912
0003b0 43 75 0d be 17 d9 79 3d c1 6d fc 3d bd 91 19 be
       -0.13814263 0.06099805 0.123256214 -0.14997001
0003c0 f4 2a 95 bd 01 ba 2b 3e 35 09 7e 3d 8b 9a 33 bd
       -0.07283583 0.16770174 0.0620205 -0.043848556
0003d0 c4 a9 19 be 87 67 d8 bd 56 f1 37 be 10 36 4e 3e
       -0.15006167 -0.10566621 -0.17963156 0.2013781
0003e0 ec 4f 9c 3d d1 a9 06 3e 4f 0c 14 3c f0 86 6e 3d
       0.076324314 0.13150717 0.009036138 0.058234155
0003f0 bc 2a c0 be a0 0f 37 3d 35 2e 82 bd 03 f9 15 3e
       -0.37532604 0.044692636 -0.063564695 0.14645772

sequential/dense/BiasAdd/ReadVariableOp f4 [256]
000000 b9 fb 83 3e 64 a2 01 3d 85 91 c6 bd d5 f8 db 3d
       0.25777987 0.03164901 -0.096957244 0.1074082
000010 76 0d b3 bd c8 a7 59 3e 0b 98 1b 3d 69 43 33 3c
       -0.08742802 0.2125541 0.037986796 0.010941365
000020 99 45 a3 3d 76 9b 6c bb 90 ea eb 3c 75 05 32 3e
       0.07972259 -0.0036103404 0.028798372 0.17384894
000030 dc 5b 8c 3d 2d cb e0 3d f7 93 8e 3d 20 58 55 3e
       0.06853458 0.10976253 0.06961816 0.20834398
000040 1b fe 5c 3e 99 d9 63 3d 9a b6 0e bd 60 18 6b 3e
       0.21581309 0.05562744 -0.03484211 0.22958517
000050 db a8 5a 3e 78 1a 72 be b5 58 e2 3d 35 6c 67 be
       0.21353476 -0.2364291 0.11052076 -0.22599871
000060 10 c9 51 3e 6d ef 91 3d fd bb 29 3e 58 20 94 3d
       0.20486856 0.07125745 0.16575618 0.072327316
000070 36 d7 a3 3e 08 02 52 3d 18 f7 02 3c de 07 f5 bc
       0.3200013 0.05127147 0.007993482 -0.029910978
000080 9f 36 0b 3e b7 43 04 bd 2f e1 9f bd 28 c4 e3 3e
       0.13595055 -0.03229114 -0.07806622 0.44485593
000090 0c 51 3c 3d 32 36 ec 3d 38 60 08 bd 97 7d 13 3e
       0.04597573 0.115337744 -0.033294886 0.14403377
0000a0 6f d3 e5 3e 7f 46 dd 3d 7c 0e d0 3e 4e 6a f4 3d
       0.44887874 0.10804462 0.4063605 0.119343385
0000b0 af 6d 6d 3e 08 15 86 bc 8e c3 d1 3d c1 18 8d 3c
       0.23186372 -0.01636745 0.10242377 0.017223718
0000c0 1a 2d b7 3e 0c 29 11 3d af 1e 4b 3e f9 5d ab 3c
       0.35776597 0.035439536 0.19835924 0.020918833
0000d0 de 20 47 bd 7a a9 42 3d 49 8a f5 3d 7b 04 8c 3e
       -0.04861533 0.047524907 0.119892664 0.27347168
0000e0 68 10 93 3e 55 f6 82 3e fc 3d e3 3d 0f 1d 7f bc
       0.28723454 0.2557856 0.11095807 -0.015570893
0000f0 92 63 57 3e d0 97 68 3e 9a e0 80 3e f5 d3 0b 3e
       0.21034077 0.22714162 0.25171357 0.13655074
000100 e4 df 1a 3e 0c 20 50 3d b9 42 81 3e 39 a5 1b be
       0.1512447 0.050811812 0.25246218 -0.15199746
000110 51 b6 a8 3d 23 c8 26 3d e8 21 d7 3d 49 ee 1b 3e
       0.08237899 0.04071821 0.10504514 0.15227617
000120 5f 6d 69 3e ec 6e d9 bd 08 85 6b 3e 98 1a 71 be
       0.22795628 -0.1061686 0.22999966 -0.23545301
000130 7c 63 e2 3d e5 0b 62 3d 56 af c5 bd b0 ae 93 3d
       0.110541314 0.055187125 -0.09652583 0.07211053
000140 ff a7 0a 3d 3c a1 2f 3d 27 2b 75 3e 32 5e f2 3d
       0.03385162 0.042878374 0.23942243 0.118343726
000150 fd 25 9f 3c bc 3d 34 3e fe 04 07 3e 0e 77 3b 3e
       0.019427294 0.17601675 0.13185498 0.18307135
000160 60 5a e6 bd 59 25 85 be 6d c3 e2 3d 73 96 39 bd
       -0.112477064 -0.26005057 0.11072431 -0.045309495
000170 dc ae 5a 3d e2 55 88 3e 7d 85 24 3e e0 53 0e 3c
       0.053389415 0.26628023 0.16066547 0.00868699
000180 a9 a4 14 be 6a 2a 76 3c 75 b9 a9 3e 04 b7 0f 3e
       -0.14515938 0.015024761 0.33149305 0.14034659
000190 d8 bd 3c 3e 3f 3c ba 3c 99 6d 19 be 66 e1 cb bd
       0.18431795 0.022733806 -0.14983214 -0.09955101
0001a0 36 e3 a9 bd db a4 86 3e 03 a9 54 be 61 91 a9 3d
       -0.0829529 0.2629765 -0.20767598 0.08279682
0001b0 57 f5 16 3e 2f f8 44 3e e2 3e 2f 3e 51 48 da 3e
       0.14742027 0.192353 0.17113832 0.42633298
0001c0 91 53 d6 3e 95 2d 53 3e 94 ff 2f 3d 3f fd 88 bd
       0.4186063 0.20622857 0.042968348 -0.06688928
0001d0 23 af b3 3d 3a 5a dd 3e 52 e5 9a 3d 42 59 2a 3e
       0.08773639 0.432329 0.07563271 0.16635612
0001e0 28 74 26 bc 0c 99 a8 bc c5 d3 1b 3e 2f 95 5a be
       -0.01015953 -0.020580791 0.15217502 -0.21345972
0001f0 a4 f9 9a 3e 55 77 81 bd dc bd 32 3b d5 50 5d 3e
       0.30268586 -0.06321589 0.002727381 0.21612866
000200 cb 83 ce 3d a0 09 f2 bd 3f ae 63 3e 88 11 07 3d
       0.10083731 -0.11818242 0.22234438 0.032975703
000210 7b 12 94 3e 2c 95 03 3e 01 0e 18 3c e1 dd ba bd
       0.2892035 0.12849873 0.009280683 -0.09124351
000220 2f ca 71 3e 9b 8c 0a bd e3 a9 0e 3c b6 ea 3c be
       0.23612283 -0.033825498 0.008707496 -0.1844891
000230 0b cf 29 3e 26 ff 8d bd d3 aa 1d 3d 0f 7e f2 3d
       0.16582887 -0.06933431 0.03849299 0.1184045
000240 58 56 38 3e 69 4f 64 3c 4e 75 87 3e cb 2e 12 3b
       0.18001688 0.0139349485 0.26456684 0.0022305723
000250 1c b7 09 be 5d d2 ff 3d 62 3f 72 3e ec e4 bb bd
       -0.13448757 0.124912955 0.23656991 -0.09174523
000260 9f f0 88 3e 0f 13 66 3e 6c a3 93 3d 3f e1 53 3d
       0.2674608 0.22468208 0.072089046 0.051728483
000270 57 5a 18 bd 35 d4 03 3e ef 04 4a be 6c e9 be 3d
       -0.03719553 0.1287392 -0.19728445 0.093218654
000280 1c 19 22 3d 46 93 18 3c ec 61 b7 bd a2 f0 d9 bc
       0.039574727 0.0093124565 -0.08954224 -0.026604
000290 07 97 99 3e be bf 56 3d 91 87 a3 3e 28 73 26 3d
       0.29998037 0.052428953 0.31939366 0.040637165
0002a0 20 5c ff bc 81 b1 39 3e 24 c9 5b be 9e 19 4b 3e
       -0.031171858 0.18134119 -0.21463448 0.19833991
0002b0 08 48 87 3e f9 c2 f5 3d 9a 1b 4a bd 47 d5 09 3f
       0.26422143 0.12000079 -0.04934273 0.5384106
0002c0 cd d6 13 3e 7b 35 2e 3e 40 23 71 3e 32 12 c6 3e
       0.14437409 0.17012589 0.23548603 0.38685757
0002d0 13 e3 75 3e 13 9a 60 3e 7e bd 8e 3d 80 88 33 3d
       0.24012403 0.21933775 0.069697365 0.04383135
0002e0 13 fb 08 be a4 80 6c 3e 82 4a 86 3e f8 dd 10 bd
       -0.13377027 0.23095948 0.2622872 -0.035367936
0002f0 03 ac 19 3e 05 f5 7e 3e 49 a3 4f 3e f4 1d f4 3d
       0.15007024 0.24898155 0.20277132 0.119197756
000300 49 b4 f6 3d 14 07 ce 3d 00 bd cc bc 1e 63 03 3e
       0.120461054 0.10059944 -0.024992466 0.12830779
000310 ac e6 9e bb e5 08 70 3e 74 c6 e0 3d 00 8c 0d 3e
       -0.0048492756 0.23440893 0.10975352 0.13822937
000320 7c 03 d3 3d 4c c4 81 3e 78 a3 2a 3d 78 4c b0 3c
       0.10303399 0.25345075 0.041659802 0.021520838
000330 b5 c1 dd 3e a1 0e e9 bd 78 5f df bc 3d 8f 11 3e
       0.4331185 -0.11379743 -0.027267203 0.14214797
000340 9a 0d 5c 3e 77 26 7b be 54 f2 53 3e 85 e6 2f 3e
       0.21489564 -0.24526392 0.2069791 0.1717778
000350 14 2c 20 3e 9f f8 aa 3e 78 6c 3b be d5 e8 da bd
       0.15641814 0.33392808 -0.18303096 -0.106889404
000360 5c 92 36 bd 0d c9 76 3e bb f4 61 3d e7 ef 50 bd
       -0.044573173 0.24100132 0.055165034 -0.05101004
000370 bf 26 42 be a6 33 17 3e d1 ab a9 bc 6a 6b a3 3e
       -0.18960093 0.14765796 -0.020711811 0.31917888
000380 80 4e 32 3e 09 00 b2 3c da b6 b5 3e 90 3e ba 3d
       0.17412758 0.021728532 0.35491067 0.09093964
000390 2d 9a ff 3c a7 5a 76 bd ab ca 61 3e 4e 62 2a 3e
       0.031201446 -0.060145047 0.22049968 0.16639063
0003a0 08 0d 96 3d 2c 28 0e be de 5d a2 3d 77 97 e5 3e
       0.07326704 -0.13882512 0.0792806 0.4484212
0003b0 26 d3 c2 3c b6 b0 06 be 70 31 9e 3e 9e e1 26 3b
       0.023782324 -0.13153347 0.30897093 0.0025464068
0003c0 8c 5b 7a be 3d b5 c7 3d ca 1d aa be d0 49 43 bd
       -0.24448985 0.09751365 -0.33225852 -0.047677815
0003d0 49 d7 04 3e 70 ba c4 3d 60 64 02 3e 60 db 44 bc
       0.1297275 0.09605873 0.12733603 -0.012015194
0003e0 98 47 4d be 96 7d 21 3e a3 4c 89 3e 36 dd 2b be
       -0.20046842 0.15770563 0.26816282 -0.16783604
0003f0 3b 14 66 3b 82 27 87 39 60 03 50 be 1d d8 c5 3d
       0.0035107273 0.00025778642 -0.20313787 0.09660361

sequential/dense_1/BiasAdd/ReadVariableOp f4 [43]
000000 40 fb 31 bf f1 eb da bc d5 3b 0d bd 70 b9 be 3e
       -0.69524 -0.026723834 -0.03448089 0.37250853
000010 0a 36 71 bd 13 69 e1 3e f6 ce 34 3e d5 99 86 3d
       -0.058889426 0.44025478 0.17657074 0.0657231
000020 8d 14 30 3f f2 15 be be d3 df a8 be 45 d0 ef 3d
       0.6878136 -0.37126118 -0.32983264 0.11709646
000030 f7 94 40 bc 82 99 9a be 41 9c 6b bc 26 4a 8f bd
       -0.011754266 -0.30195242 -0.014380516 -0.069965646
000040 39 a9 17 bf 17 07 3b bf 90 15 cd 3d c7 5b 4e bf
       -0.5924259 -0.73057693 0.10013878 -0.8060879
000050 ad 4e d9 3e b5 58 db 3d 27 d0 23 bf 5f 99 5e be
       0.42442837 0.10710279 -0.6398949 -0.21738194
000060 38 d2 30 3e 76 e7 f9 3d b1 fb 44 bc fe 9e ae 3d
       0.17267692 0.12202351 -0.0120228985 0.08526419
000070 8a ce 31 3c fc 09 09 3e a6 76 69 3e ed 78 37 be
       0.010852465 0.13382715 0.22799167 -0.17917223
000080 c0 b4 0f 3d fe c9 0b be a7 8e 25 be 9e e1 f8 bd
       0.035084486 -0.13651273 -0.16167699 -0.12152408
000090 fe 7a 4a 3e ff 2e 8c be 43 28 69 3e 2c b5 a5 bd
       0.1977348 -0.27379605 0.22769265 -0.080911964
0000a0 ca 7f 44 3e 03 26 f2 be 29 a9 72 be
       0.19189373 -0.47294626 -0.23697342

sequential/dense/MatMul f4 [256, 576]
000000 2f da 16 bd 0f f2 56 bd d8 fb 62 bd ac 10 07 be
       -0.03682917 -0.05247694 -0.05541596 -0.13189954
000010 d2 ae 2b 3c 54 66 51 3c b9 6a 7a 3c 7f 3d eb 3c
       0.010478692 0.012780745 0.015284234 0.028715847
000020 2f 94 c7 3c 44 12 93 bd a4 39 b0 bd 6a 20 86 bc
       0.024362652 -0.07181218 -0.08604744 -0.016372878
000030 05 74 91 bd 5c ab 52 bd 38 21 82 3d c1 3b e2 bd
       -0.07102207 -0.051432952 0.06353992 -0.110465534
000040 98 86 b6 bc 1e fd 24 bd 27 96 37 be a1 1a c1 bd
       -0.022280976 -0.040280454 -0.17928372 -0.09428907
000050 dd 20 94 3d ed a3 09 bb 30 28 f5 3c 47 5a e4 bc
       0.07232831 -0.0021002248 0.02992639 -0.027875079
000060 09 d4 97 bc fa 91 3b 3b be 8a a5 3d 8c 7c 93 bd
       -0.018533723 0.0028620944 0.080831036 -0.0720149
000070 e8 f4 aa be 9b 5f 8e 3b 53 51 39 be c8 1a 11 3d
       -0.33389974 0.004344893 -0.18097429 0.03542593
000080 50 b9 1e 3d 84 d6 c6 3d cb 12 b7 3a e7 a4 85 3c
       0.038750947 0.09708884 0.0013967393 0.016313983
000090 62 da c6 3c a5 5b 13 be 94 1e 76 3d 9b 6a ec 3c
       0.024274055 -0.14390428 0.060087755 0.028859427
0000a0 00 f4 7d bd 7a fe 09 bb a0 d9 f6 3d 8c cf b7 bd
       -0.062000275 -0.002105622 0.120532274 -0.08975133
0000b0 cb 6b 1e 3e 03 59 12 be 9b 45 9c bd f4 59 88 bd
       0.15470807 -0.14291768 -0.07630464 -0.06657782
0000c0 ca 35 81 3d dd fb bb 3c d8 58 9d be d1 e6 06 be
       0.063090876 0.022947246 -0.30731845 -0.13173987
0000d0 63 b0 c4 3c 29 61 ac bd 53 79 63 3b d2 e5 56 be
       0.024009889 -0.08416969 0.0034709766 -0.20986107
0000e0 8d ff 49 bd b3 3b ce bc a6 6f 17 3e b2 d1 d4 3d
       -0.049315978 -0.025174951 0.14788684 0.10391559
0000f0 a3 d8 b0 bc 0c b9 f8 3c 34 0f 13 be d2 01 ae bd
       -0.021587675 0.030361675 -0.14361268 -0.08496441
000100 bc f8 5d be 15 ff da bc 4e 63 d6 3d 24 07 4a bc
       -0.21676916 -0.02673296 0.104681596 -0.012330804
000110 db 73 a0 bd 86 98 e8 3d ae 90 a6 bc fc 70 94 3d
       -0.07834598 0.113572165 -0.02033266 0.072481126
000120 9f 1c 1e 3d 86 5d f0 bd 01 95 d8 3c 3a f9 36 be
       0.038601514 -0.11736588 0.026438238 -0.1786851
000130 c9 89 38 be ee c3 d9 3c f4 d2 01 3c 16 3b c4 3c
       -0.18021311 0.026582684 0.00792383 0.023953956
000140 77 06 e8 3d e0 06 f3 3c 66 b9 7e be 9a ca c0 39
       0.11329358 0.029666364 -0.24875411 0.00036772044
000150 a5 3d be 3d ff 9e e7 bc f5 25 15 be 7f 23 89 be
       0.092891015 -0.028274057 -0.1456526 -0.26784894
000160 0a 84 52 3d 15 62 d8 3d 39 bd 59 3d 9d 97 37 bd
       0.051395454 0.10565583 0.053158972 -0.044822324
000170 66 f8 58 be be 3f 48 3d 90 bb 8e bc 01 75 d4 bd
       -0.21188506 0.048888914 -0.017423421 -0.10373879
000180 fa b8 51 3e 5e 60 87 bd 86 e3 53 3d c6 54 9b 3c
       0.20480719 -0.066101775 0.051730655 0.018961322
000190 39 3f d9 3d c2 c3 6a 3d e9 68 28 3e b8 c8 3d be
       0.10607762 0.057315595 0.1644627 -0.185336
0001a0 10 4c a9 3d 9b 07 c9 3d 6e a9 39 3d d8 9b a4 3d
       0.08266461 0.09815904 0.045327596 0.08037537
0001b0 63 ae 35 be 20 bd b7 bd 6c 17 2c 3e 65 54 56 bd
       -0.17742305 -0.089716196 0.1680581 -0.05232658
0001c0 7d e2 b6 3d a5 db 3d 3d c9 ad 2a bd a2 28 c7 bd
       0.08929918 0.046352047 -0.04166964 -0.09724547
0001d0 a2 5c 99 bd 95 c2 0d be bc d2 1f bd 6e 4a 22 bd
       -0.074883714 -0.13843758 -0.03901933 -0.039621763
0001e0 c6 b6 2b be 8f 1b d1 bd bc aa 12 be de 10 24 3e
       -0.16768941 -0.102103345 -0.14322942 0.1602206
0001f0 ce 8c 44 bd 83 bc 7a bd 9b 31 e1 bd 98 d1 2d bd
       -0.047985844 -0.061214935 -0.109957896 -0.042436212
000200 e6 5c 07 3e 66 5d 09 be f0 e6 c8 bd 5c b9 43 be
       0.13219032 -0.13414535 -0.09809673 -0.19113678
000210 ab 0f 5a 3d 81 25 17 be 00 4a 9f 3c 77 44 80 3d
       0.0532376 -0.147604 0.019444466 0.06263059
000220 3a 99 4d bd 2c 3b 75 3c 41 b9 0d 3e 89 53 16 be
       -0.050194956 0.014967721 0.138402 -0.14680304
000230 1a 10 88 bb 48 a0 1a be 5b 5c 0d be fa 17 a3 3d
       -0.00415231 -0.15100205 -0.13804762 0.079635575
000240 40 e5 18 be cf 87 b9 3d 30 55 25 3d 10 22 67 be
       -0.14931202 0.090591066 0.040364444 -0.22571588
000250 36 b4 80 bc f5 6f 84 be 32 37 0c 3d aa a2 ca 3c
       -0.015710931 -0.25866666 0.034232326 0.024735767
000260 1e 42 34 3e 32 fb 7e 3d 86 ad a3 be e2 8a 6f bd
       0.17603347 0.062251277 -0.31968325 -0.05848206
000270 64 b9 83 bd 0d 1a df bd 26 2b e6 3d 5b e5 af bd
       -0.06431845 -0.10893641 0.11238699 -0.08588668
000280 dc f1 c7 3c 53 ed 12 be 63 0f 2c bd b6 a0 a5 3d
       0.02440732 -0.14348345 -0.04200686 0.08087294
000290 e7 44 d5 bb 91 4b 9a 3c 4f b3 70 3e 81 e2 c7 3d
       -0.006508458 0.018834861 0.23505901 0.09759999
0002a0 4e ac 27 3e b9 ff a2 3d 29 e2 fe bd 77 97 50 3d
       0.16374323 0.079589315 -0.124454804 0.050925698
0002b0 7f 88 84 bd 78 34 81 bb a9 6b a0 3d 50 7e 75 bc
       -0.06471347 -0.0039430223 0.078330345 -0.0149837285
0002c0 74 fb 2b 3e fb ba f4 3b a2 c1 71 bc da 50 f6 3c
       0.1679514 0.007468579 -0.014755638 0.03006785
0002d0 cc 69 20 3b 35 45 20 3c 1b 4d 0e bd da 98 7d bb
       0.0024477122 0.009782125 -0.034741502 -0.0038695843
0002e0 21 49 65 be 31 ac 24 3c 8d a4 8d be 96 16 03 be
       -0.22391178 0.010050819 -0.27664605 -0.12801585
0002f0 bc 1f 68 3c c0 4a cb 3d 07 fe 61 be 02 32 50 be
       0.014167722 0.09926367 -0.2206956 -0.20331576
000300 19 24 d4 3d 3f 02 80 bd 28 64 eb 3c 3f 0b 1c be
       0.103584476 -0.062504284 0.028734282 -0.15238665
000310 55 b1 27 3e 7f 99 85 bc 7c df a6 3d 00 c8 36 3e
       0.1637624 -0.016308544 0.08148095 0.17849731
000320 b0 1d ab bd 71 70 3b be 09 90 45 bd ac 0b ca 3b
       -0.08355272 -0.18304612 -0.048233066 0.006165942
000330 ff 8f 10 3e f6 eb e2 bd 96 0d 98 bd e9 18 8f 3d
       0.1411743 -0.11080162 -0.07424466 0.06987173
000340 2a 80 91 3d 69 07 29 bd dc fd 7f 3d f3 62 fb 3d
       0.071045235 -0.041266833 0.06249796 0.122747324
000350 da fd 9f bd cf 3d 26 be 6c 77 30 3e b1 04 8d bb
       -0.0781209 -0.16234516 0.17233056 -0.004303538
000360 83 c6 37 be d7 7f 60 be 91 58 33 be cd a8 d6 3d
       -0.1794682 -0.21923767 -0.17514254 0.10481415
000370 b5 03 4b 3d 0a 8e e9 bc 5a c4 fc bd 05 57 4b bd
       0.049564082 -0.028510112 -0.123421386 -0.049643535
000380 e8 ea 9d 3d 99 99 e3 bd 28 44 f5 bc b2 ff c6 3d
       0.077108204 -0.11113281 -0.029939726 0.09716739
000390 ed f3 ad 3c 4f 2d b1 be c1 29 54 bc d9 bc 61 3e
       0.021234477 -0.3460488 -0.012949408 0.22044696
0003a0 8e 56 8a 3e 08 8e f4 3d 8b 9c 36 3e cb ff 06 be
       0.2701916 0.11941153 0.17833154 -0.13183515
0003b0 4b 83 27 be cb 92 bd bb c3 00 6b bc 0e 75 44 3e
       -0.16358678 -0.0057853214 -0.014343443 0.19185278
0003c0 2f dd ca 3c a6 f1 e3 bd 82 43 02 3e 4d a9 bf bb
       0.024763672 -0.11130075 0.12721065 -0.0058490396
0003d0 bc 33 65 be 4e 02 17 be 76 53 06 3e 7e f3 4e 3d
       -0.22383016 -0.14746973 0.13117775 0.05052518
0003e0 c0 25 4f be 9f c3 d0 3c 84 9f 17 be 3d aa 0e be
       -0.20229244 0.025483904 -0.14806944 -0.13932128
0003f0 af 76 d0 bc cf f3 68 bd 08 55 56 be 21 34 08 be
       -0.025447218 -0.05687314 -0.20930874 -0.13301136
